codes/rover_pi2/tf_models/rover_pi2_drive_qa.tflite (tflite, 266144 bytes, 9 tensors)

Nvidia_Model/quant_conv2d/Conv2D;Nvidia_Model/quant_conv2d/LastValueQuant/FakeQuantWithMinMaxVarsPerChannel i1 [24, 5, 5, 3]
-26 98 29 -16 48 20 -37 124
27 8 36 23 38 30 51 38
71 37 50 109 49 20 127 28
44 52 -30 -23 28 -21 39 69
-8 20 105 63 2 70 2 25
36 -20 -25 97 15 -41 75 92
36 89 7 -10 87 14 5 96
5 -19 43 13 8 11 101 -60
34 32 35 49 96 -55 -4 85
-27 14 76 -68 25 24 27 53
-32 1 103 16 62 44 -47 -46
40 58 23 39 47 -90 78 17
-53 -11 73 -66 -43 100 71 -1
-14 -17 73 -7 -61 -27 -16 3
5 -47 -40 67 -45 -69 -58 45
65 66 71 -49 -45 21 95 -42
1 35 -56 45 -66 58 56 58
67 69 48 -21 49 10 -38 40
26 69 -28 41 127 86 2 65
-50 60 -5 -11 12 1 25 -65
36 25 -60 68 55 85 -62 -30
78 47 -56 1 23 60 -38 83
-77 -112 -7 2 110 46 9 52
35 -24 -44 -54 -30 -84 80 -22
-112 42 -49 15 58 57 72 -48
-70 -6 -15 36 -69 49 -67 -120
5 -22 127 0 18 27 -76 -3
48 11 60 20 -31 -27 -120 62
52 10 48 73 92 8 87 65
-110 -14 -91 9 10 56 23 51
48 1 -12 -93 -56 14 26 -104
80 -67 -75 -62 21 32 64 2
00000000: e662 1df0 3014 db7c 1b08 2417 261e 3326
00000010: 4725 326d 3114 7f1c 2c34 e2e9 1ceb 2745
00000020: f814 693f 0246 0219 24ec e761 0fd7 4b5c
00000030: 2459 07f6 570e 0560 05ed 2b0d 080b 65c4
00000040: 2220 2331 60c9 fc55 e50e 4cbc 1918 1b35
00000050: e001 6710 3e2c d1d2 283a 1727 2fa6 4e11
00000060: cbf5 49be d564 47ff f2ef 49f9 c3e5 f003
00000070: 05d1 d843 d3bb c62d 4142 47cf d315 5fd6
00000080: 0123 c82d be3a 383a 4345 30eb 310a da28
00000090: 1a45 e429 7f56 0241 ce3c fbf5 0c01 19bf
000000a0: 2419 c444 3755 c2e2 4e2f c801 173c da53
000000b0: b390 f902 6e2e 0934 23e8 d4ca e2ac 50ea
000000c0: 902a cf0f 3a39 48d0 bafa f124 bb31 bd88
000000d0: 05ea 7f00 121b b4fd 300b 3c14 e1e5 883e
000000e0: 340a 3049 5c08 5741 92f2 a509 0a38 1733
000000f0: 3001 f4a3 c80e 1a98 50bd b5c2 1520 4002

Nvidia_Model/quant_conv2d_1/Conv2D;Nvidia_Model/quant_conv2d_1/LastValueQuant/FakeQuantWithMinMaxVarsPerChannel i1 [36, 5, 5, 24]
28 -71 -38 -1 -2 -78 -12 -57
-45 -72 57 -24 54 -17 -17 -57
-89 -42 -57 -46 -35 -62 18 -38
45 -8 -101 -13 -8 48 -42 -108
-81 67 -106 -27 30 51 -24 -38
-81 11 38 -61 -41 61 -86 -10
-21 -72 -83 28 23 -31 -6 -28
-80 -28 -89 14 -32 -21 -101 -16
-66 46 58 -91 64 24 -95 -5
-77 -74 1 -42 52 14 -5 -59
-21 28 -33 -81 -54 39 18 -46
-39 34 -102 -74 50 34 -90 -69
-24 -49 -20 30 -3 26 27 -62
47 -99 42 -102 22 9 0 -13
61 31 -61 -30 51 -71 -4 -68
-27 13 -15 -36 44 -39 -82 -18
-71 -6 51 -41 66 -43 -114 -74
17 18 0 -81 -32 -23 -87 -48
69 -93 69 -42 2 9 -107 -38
-61 49 -118 -19 -79 -85 24 -66
11 -10 21 -66 -81 -73 -24 59
-48 0 -12 2 -37 -127 -51 4
-57 -19 -12 21 23 -29 -104 -77
-17 24 37 -38 17 -55 -17 36
-85 73 -48 -54 92 -50 -52 -8
-98 -26 -27 -59 -101 -54 -14 23
14 -58 52 62 50 -70 -7 23
45 52 14 -69 -30 22 -72 -89
22 -69 54 46 -45 -17 -61 -27
-14 28 11 19 -68 -77 -56 -29
-50 -14 60 -93 -100 43 -96 -66
-53 -11 16 -61 -78 -25 -19 -44
00000000: 1cb9 daff feb2 f4c7 d3b8 39e8 36ef efc7
00000010: a7d6 c7d2 ddc2 12da 2df8 9bf3 f830 d694
00000020: af43 96e5 1e33 e8da af0b 26c3 d73d aaf6
00000030: ebb8 ad1c 17e1 fae4 b0e4 a70e e0eb 9bf0
00000040: be2e 3aa5 4018 a1fb b3b6 01d6 340e fbc5
00000050: eb1c dfaf ca27 12d2 d922 9ab6 3222 a6bb
00000060: e8cf ec1e fd1a 1bc2 2f9d 2a9a 1609 00f3
00000070: 3d1f c3e2 33b9 fcbc e50d f1dc 2cd9 aeee
00000080: b9fa 33d7 42d5 8eb6 1112 00af e0e9 a9d0
00000090: 45a3 45d6 0209 95da c331 8aed b1ab 18be
000000a0: 0bf6 15be afb7 e83b d000 f402 db81 cd04
000000b0: c7ed f415 17e3 98b3 ef18 25da 11c9 ef24
000000c0: ab49 d0ca 5cce ccf8 9ee6 e5c5 9bca f217
000000d0: 0ec6 343e 32ba f917 2d34 0ebb e216 b8a7
000000e0: 16bb 362e d3ef c3e5 f21c 0b13 bcb3 c8e3
000000f0: cef2 3ca3 9c2b a0be cbf5 10c3 b2e7 edd4

Nvidia_Model/quant_conv2d_2/Conv2D;Nvidia_Model/quant_conv2d_2/LastValueQuant/FakeQuantWithMinMaxVarsPerChannel i1 [48, 5, 5, 36]
8 -30 -14 44 27 -47 7 -25
-18 -6 4 -66 -8 -13 -18 7
-25 -20 24 -36 -19 -39 -28 -51
-17 18 -14 -54 -11 23 -39 -16
15 24 -23 30 -3 -14 2 27
6 -92 -3 -1 -14 -17 0 -56
-10 4 30 0 -17 52 26 -33
-7 -73 -23 -22 -4 -69 -59 26
2 49 -41 -6 -18 31 -11 22
8 -18 13 19 -8 -51 -19 12
-2 -13 8 -45 -5 15 -19 -13
-12 -15 8 -7 -32 -57 -19 -5
-61 -33 -39 -24 -10 36 -17 22
-11 -4 21 38 -3 8 9 45
17 -36 44 -8 -8 6 4 -45
24 19 11 -14 15 -27 -7 -8
-18 -97 -28 -27 -48 -23 -58 -10
-49 24 -28 -7 2 -21 0 -6
23 -14 26 15 -11 -50 14 -21
16 24 -4 -14 17 13 5 6
1 -8 -4 -13 -35 -93 -12 16
-16 -47 -69 13 -58 28 -95 -12
-58 -20 23 -14 -27 -20 -26 56
19 -76 17 5 24 13 -29 -15
2 7 -14 9 28 -4 -8 -50
17 -69 -18 -53 19 -16 -53 -14
-3 39 -47 -12 2 -42 -16 14
-28 -16 -11 36 13 -86 48 3
16 2 -1 -81 0 16 -4 9
-29 44 7 -13 -47 -68 7 -36
16 -12 -67 20 3 10 -35 22
-4 -71 16 34 10 -35 -15 29
00000000: 08e2 f22c 1bd1 07e7 eefa 04be f8f3 ee07
00000010: e7ec 18dc edd9 e4cd ef12 f2ca f517 d9f0
00000020: 0f18 e91e fdf2 021b 06a4 fdff f2ef 00c8
00000030: f604 1e00 ef34 1adf f9b7 e9ea fcbb c51a
00000040: 0231 d7fa ee1f f516 08ee 0d13 f8cd ed0c
00000050: fef3 08d3 fb0f edf3 f4f1 08f9 e0c7 edfb
00000060: c3df d9e8 f624 ef16 f5fc 1526 fd08 092d
00000070: 11dc 2cf8 f806 04d3 1813 0bf2 0fe5 f9f8
00000080: ee9f e4e5 d0e9 c6f6 cf18 e4f9 02eb 00fa
00000090: 17f2 1a0f f5ce 0eeb 1018 fcf2 110d 0506
000000a0: 01f8 fcf3 dda3 f410 f0d1 bb0d c61c a1f4
000000b0: c6ec 17f2 e5ec e638 13b4 1105 180d e3f1
000000c0: 0207 f209 1cfc f8ce 11bb eecb 13f0 cbf2
000000d0: fd27 d1f4 02d6 f00e e4f0 f524 0daa 3003
000000e0: 1002 ffaf 0010 fc09 e32c 07f3 d1bc 07dc
000000f0: 10f4 bd14 030a dd16 fcb9 1022 0add f11d

Nvidia_Model/quant_conv2d_3/Conv2D;Nvidia_Model/quant_conv2d_3/LastValueQuant/FakeQuantWithMinMaxVarsPerChannel i1 [64, 3, 3, 48]
-2 -47 -39 -23 -67 -60 32 15
-7 -22 40 12 -36 -40 -60 -25
-44 -96 21 -45 0 -48 -67 -28
-56 32 12 55 39 -80 -14 18
-19 -17 -38 -59 -17 -44 -54 -56
-6 -47 15 -62 -54 -56 -90 67
50 -68 13 -87 -82 27 -15 -19
-5 -46 51 24 6 2 8 -22
-48 -62 26 34 -66 -74 -59 -95
53 -8 -75 -39 30 25 -57 -34
-54 38 2 -10 -39 -19 -35 35
0 39 -20 22 -80 -67 -83 55
-31 37 18 36 13 -17 7 -16
-14 -27 -59 -9 67 -67 3 51
-39 -46 32 -10 -75 -32 -43 -13
34 -9 0 -36 -64 20 5 29
47 -38 -46 -4 5 24 -31 -67
2 -25 62 -30 -127 -57 -16 0
13 0 -56 -32 -60 6 -14 -57
-25 -65 -40 -7 -2 -64 -27 -77
-39 -37 -9 -59 33 -73 -26 7
44 -93 -29 -48 9 -61 -22 45
-58 -8 -34 1 19 -42 -47 19
51 -47 -46 -74 30 5 -34 -60
-63 53 -85 12 -56 26 52 -45
-88 -20 -49 -55 -19 -62 -9 34
-5 -81 -52 -49 -13 -58 -30 -22
-27 2 -67 -44 42 16 4 14
-74 -40 -9 24 -8 -70 -10 17
-71 -13 -27 -37 -75 -18 7 35
-11 42 4 34 6 -7 -2 41
-66 -34 57 -16 -7 -83 -69 -77
00000000: fed1 d9e9 bdc4 200f f9ea 280c dcd8 c4e7
00000010: d4a0 15d3 00d0 bde4 c820 0c37 27b0 f212
00000020: edef dac5 efd4 cac8 fad1 0fc2 cac8 a643
00000030: 32bc 0da9 ae1b f1ed fbd2 3318 0602 08ea
00000040: d0c2 1a22 beb6 c5a1 35f8 b5d9 1e19 c7de
00000050: ca26 02f6 d9ed dd23 0027 ec16 b0bd ad37
00000060: e125 1224 0def 07f0 f2e5 c5f7 43bd 0333
00000070: d9d2 20f6 b5e0 d5f3 22f7 00dc c014 051d
00000080: 2fda d2fc 0518 e1bd 02e7 3ee2 81c7 f000
00000090: 0d00 c8e0 c406 f2c7 e7bf d8f9 fec0 e5b3
000000a0: d9db f7c5 21b7 e607 2ca3 e3d0 09c3 ea2d
000000b0: c6f8 de01 13d6 d113 33d1 d2b6 1e05 dec4
000000c0: c135 ab0c c81a 34d3 a8ec cfc9 edc2 f722
000000d0: fbaf cccf f3c6 e2ea e502 bdd4 2a10 040e
000000e0: b6d8 f718 f8ba f611 b9f3 e5db b5ee 0723
000000f0: f52a 0422 06f9 fe29 bede 39f0 f9ad bbb3

Nvidia_Model/quant_conv2d_4/Conv2D;Nvidia_Model/quant_conv2d_4/LastValueQuant/FakeQuantWithMinMaxVarsPerChannel i1 [64, 3, 3, 64]
-8 -5 22 -44 -31 44 -13 -24
-54 30 -14 19 0 -2 25 -6
-23 -9 -58 15 -58 -22 6 -19
-42 -38 -27 22 -60 10 24 -32
34 -38 -24 -79 -59 26 -32 13
-63 -37 -55 -44 24 -59 -33 -3
39 66 16 -92 -26 31 -6 13
4 -65 -13 -20 -16 36 -81 19
16 16 -32 -23 -20 42 39 18
-36 17 -50 2 6 22 -23 7
-6 -15 -39 42 -35 -45 2 -24
-32 -7 15 24 -32 5 -6 -5
22 -10 -35 -79 -27 11 28 6
-71 -32 -13 -37 -7 -30 0 -6
-34 34 19 -34 -26 -29 19 26
-19 -34 -6 -44 -38 25 -29 46
22 1 10 -45 -23 47 19 27
-10 -18 -31 17 -6 -9 -37 -26
-40 4 -12 36 11 -52 -26 -14
-38 9 13 21 -14 -8 26 28
-21 20 2 -2 -15 10 43 2
-50 -32 21 -3 3 -11 2 -18
-9 -1 4 -46 23 6 -10 5
5 16 22 -4 -16 2 -54 -36
22 36 28 10 -51 36 32 4
-68 26 -29 11 -44 -19 -52 34
-3 -25 -72 36 -58 5 7 35
-2 16 3 7 -26 -53 7 54
43 11 -8 -53 -49 -19 32 17
-50 -45 -21 -47 -3 -61 -23 -23
13 6 -8 -127 35 19 -33 36
-32 -80 38 -32 37 10 -65 -1
00000000: f8fb 16d4 e12c f3e8 ca1e f213 00fe 19fa
00000010: e9f7 c60f c6ea 06ed d6da e516 c40a 18e0
00000020: 22da e8b1 c51a e00d c1db c9d4 18c5 dffd
00000030: 2742 10a4 e61f fa0d 04bf f3ec f024 af13
00000040: 1010 e0e9 ec2a 2712 dc11 ce02 0616 e907
00000050: faf1 d92a ddd3 02e8 e0f9 0f18 e005 fafb
00000060: 16f6 ddb1 e50b 1c06 b9e0 f3db f9e2 00fa
00000070: de22 13de e6e3 131a edde fad4 da19 e32e
00000080: 1601 0ad3 e92f 131b f6ee e111 faf7 dbe6
00000090: d804 f424 0bcc e6f2 da09 0d15 f2f8 1a1c
000000a0: eb14 02fe f10a 2b02 cee0 15fd 03f5 02ee
000000b0: f7ff 04d2 1706 f605 0510 16fc f002 cadc
000000c0: 1624 1c0a cd24 2004 bc1a e30b d4ed cc22
000000d0: fde7 b824 c605 0723 fe10 0307 e6cb 0736
000000e0: 2b0b f8cb cfed 2011 ced3 ebd1 fdc3 e9e9
000000f0: 0d06 f881 2313 df24 e0b0 26e0 250a bfff

Nvidia_Model/quant_dense/MatMul;Nvidia_Model/quant_dense/LastValueQuant/FakeQuantWithMinMaxVars i1 [100, 1152] scale=0.0044808085 zero_point=0
0.017923234 0.049288895 -0.013442425 -0.008961617 0.02688485 -0.08513536 -0.076173745 -0.044808086
-0.013442425 -0.03136566 -0.013442425 0.0 -0.08961617 -0.08961617 -0.035846468 -0.06721213
0.0 -0.09409698 0.008961617 -0.022404043 -0.008961617 -0.05825051 -0.03136566 -0.06273132
0.040327277 0.017923234 -0.0537697 0.008961617 0.022404043 -0.044808086 0.0 0.040327277
-0.02688485 0.022404043 -0.040327277 -0.0537697 0.0537697 -0.022404043 0.02688485 -0.022404043
0.0 -0.017923234 0.013442425 -0.06721213 0.044808086 -0.035846468 0.017923234 0.044808086
0.022404043 0.0537697 -0.040327277 -0.040327277 -0.035846468 0.0044808085 0.035846468 -0.017923234
-0.0537697 0.06273132 -0.040327277 0.022404043 -0.06273132 -0.013442425 -0.017923234 -0.044808086
-0.076173745 -0.049288895 -0.08961617 0.008961617 -0.02688485 -0.1030586 -0.022404043 -0.02688485
-0.0537697 -0.076173745 -0.044808086 -0.06721213 -0.06273132 -0.08513536 -0.03136566 -0.017923234
-0.0537697 -0.05825051 -0.02688485 -0.05825051 -0.035846468 -0.035846468 -0.0537697 -0.06273132
-0.071692936 -0.035846468 -0.017923234 -0.05825051 0.017923234 -0.035846468 0.02688485 0.008961617
0.03136566 -0.076173745 0.0537697 -0.035846468 0.0537697 -0.044808086 0.044808086 0.0537697
0.017923234 0.0 0.0537697 -0.049288895 -0.06721213 0.022404043 0.0 -0.022404043
-0.040327277 -0.049288895 -0.022404043 0.022404043 -0.02688485 -0.035846468 -0.05825051 0.040327277
0.017923234 -0.049288895 0.02688485 -0.08513536 0.0044808085 -0.02688485 0.040327277 -0.03136566
0.022404043 -0.05825051 0.044808086 -0.080654554 0.022404043 -0.013442425 -0.03136566 -0.080654554
0.040327277 -0.02688485 -0.03136566 0.0044808085 -0.071692936 0.0 -0.0044808085 -0.0537697
-0.076173745 -0.0044808085 -0.0044808085 -0.040327277 -0.080654554 -0.022404043 0.044808086 0.008961617
-0.080654554 -0.05825051 -0.06273132 0.0 -0.0537697 -0.017923234 -0.013442425 -0.03136566
-0.06721213 0.0044808085 0.044808086 0.008961617 0.013442425 -0.076173745 -0.080654554 -0.05825051
-0.02688485 -0.0044808085 0.049288895 -0.06273132 -0.044808086 -0.08961617 -0.080654554 -0.06273132
0.02688485 -0.071692936 0.013442425 0.02688485 -0.044808086 -0.022404043 0.03136566 -0.044808086
-0.06273132 -0.05825051 0.0537697 -0.076173745 -0.076173745 -0.022404043 0.022404043 -0.03136566
-0.071692936 -0.0044808085 0.022404043 0.02688485 -0.044808086 -0.05825051 0.0537697 -0.06273132
0.017923234 -0.035846468 0.022404043 0.05825051 -0.0044808085 -0.0044808085 -0.044808086 -0.06721213
-0.076173745 -0.022404043 0.0044808085 -0.02688485 -0.06721213 -0.071692936 -0.0044808085 -0.008961617
0.0 -0.071692936 0.0537697 -0.013442425 -0.017923234 0.0 -0.0537697 -0.0537697
-0.06273132 -0.08513536 0.03136566 0.02688485 0.0044808085 -0.1075394 -0.071692936 0.05825051
-0.071692936 -0.09857779 -0.05825051 -0.09857779 -0.06273132 -0.022404043 0.02688485 -0.040327277
-0.0537697 0.022404043 -0.071692936 -0.08961617 -0.049288895 0.03136566 -0.044808086 0.02688485
0.0537697 0.013442425 -0.0044808085 0.0 0.02688485 -0.049288895 -0.017923234 -0.08513536
00000000: 040b fdfe 06ed eff6 fdf9 fd00 ecec f8f1
00000010: 00eb 02fb fef3 f9f2 0904 f402 05f6 0009
00000020: fa05 f7f4 0cfb 06fb 00fc 03f1 0af8 040a
00000030: 050c f7f7 f801 08fc f40e f705 f2fd fcf6
00000040: eff5 ec02 fae9 fbfa f4ef f6f1 f2ed f9fc
00000050: f4f3 faf3 f8f8 f4f2 f0f8 fcf3 04f8 0602
00000060: 07ef 0cf8 0cf6 0a0c 0400 0cf5 f105 00fb
00000070: f7f5 fb05 faf8 f309 04f5 06ed 01fa 09f9
00000080: 05f3 0aee 05fd f9ee 09fa f901 f000 fff4
00000090: efff fff7 eefb 0a02 eef3 f200 f4fc fdf9
000000a0: f101 0a02 03ef eef3 faff 0bf2 f6ec eef2
000000b0: 06f0 0306 f6fb 07f6 f2f3 0cef effb 05f9
000000c0: f0ff 0506 f6f3 0cf2 04f8 050d ffff f6f1
000000d0: effb 01fa f1f0 fffe 00f0 0cfd fc00 f4f4
000000e0: f2ed 0706 01e8 f00d f0ea f3ea f2fb 06f7
000000f0: f405 f0ec f507 f606 0c03 ff00 06f5 fced

Nvidia_Model/quant_dense_1/MatMul;Nvidia_Model/quant_dense_1/LastValueQuant/FakeQuantWithMinMaxVars i1 [50, 100] scale=0.0032229442 zero_point=0
-0.17403899 -0.019337665 0.122471884 -0.07735066 -0.17726193 -0.15792426 -0.103134215 -0.061235942
-0.17081605 -0.025783554 0.17403899 -0.18693076 0.019337665 0.15792426 -0.05479005 -0.009668833
-0.051567107 -0.07735066 -0.1611472 0.016114721 -0.009668833 0.06768183 -0.11280305 -0.12891777
0.10635716 -0.13214071 -0.11602599 0.05479005 -0.09668833 0.09668833 0.103134215 -0.05479005
0.06768183 -0.13214071 -0.10635716 -0.04512122 0.0 -0.1611472 0.15470132 0.1385866
0.02256061 -0.087019496 -0.18693076 0.11280305 0.09346538 0.058012996 0.17081605 -0.10635716
-0.15792426 -0.20626843 -0.05479005 -0.16437015 0.13214071 -0.07090478 0.009668833 -0.03867533
-0.009668833 -0.15147838 0.1095801 0.087019496 0.0064458884 -0.122471884 -0.02256061 -0.087019496
-0.1450325 0.051567107 0.15470132 -0.18693076 0.025783554 0.17726193 -0.064458884 0.032229442
0.03545239 0.19337666 0.15147838 0.15470132 -0.13536365 -0.14180955 -0.0064458884 -0.10635716
0.16759309 0.14825544 0.0805736 0.17726193 -0.13214071 -0.07090478 -0.16759309 0.05479005
-0.11280305 0.18048488 -0.083796546 -0.012891777 0.15792426 -0.03545239 -0.12569483 0.17403899
-0.019337665 -0.029006498 0.15147838 0.15792426 0.064458884 0.05479005 0.051567107 -0.0032229442
-0.03545239 -0.04512122 -0.2256061 -0.048344165 -0.119248934 -0.025783554 -0.1901537 0.15470132
-0.009668833 -0.2256061 0.0805736 -0.03545239 -0.087019496 0.048344165 -0.19337666 -0.025783554
0.0805736 -0.1450325 -0.083796546 -0.1901537 -0.15470132 -0.019337665 0.058012996 0.15147838
0.041898273 0.103134215 0.009668833 -0.122471884 -0.029006498 0.083796546 0.07412772 -0.05479005
0.025783554 -0.122471884 -0.087019496 0.17403899 0.14825544 0.09668833 -0.0805736 -0.061235942
-0.23527493 -0.19982255 0.07412772 0.04512122 0.05479005 -0.03545239 0.051567107 0.10635716
0.07412772 -0.16759309 0.15792426 -0.11280305 0.11602599 0.17081605 -0.13536365 0.0064458884
-0.083796546 0.13536365 0.064458884 -0.103134215 0.16437015 -0.029006498 0.06768183 -0.09668833
0.07412772 -0.02256061 -0.13214071 0.05479005 -0.09668833 -0.07735066 -0.07735066 0.10635716
-0.11280305 0.0 0.122471884 0.02256061 0.1385866 -0.14180955 -0.058012996 -0.03867533
0.17403899 -0.041898273 0.07735066 -0.09991127 0.17726193 0.1095801 0.041898273 -0.07090478
-0.11280305 -0.03545239 0.15147838 -0.032229442 0.20304549 0.15470132 0.15147838 0.11602599
-0.03867533 0.019337665 0.10635716 0.1450325 -0.16437015 -0.122471884 -0.15147838 0.05479005
-0.03545239 0.064458884 0.09024244 -0.1385866 -0.032229442 0.17403899 -0.119248934 -0.083796546
0.103134215 -0.09991127 -0.13214071 -0.12569483 0.04512122 -0.041898273 0.17726193 -0.21271431
0.05479005 -0.22882904 -0.051567107 0.15470132 0.083796546 -0.14825544 0.048344165 0.064458884
0.03867533 -0.14180955 -0.24816671 0.051567107 0.009668833 -0.14825544 0.19337666 -0.029006498
-0.1385866 -0.14825544 0.09991127 -0.064458884 0.07735066 0.19337666 -0.1095801 0.083796546
-0.14825544 0.02256061 -0.0032229442 -0.09668833 -0.25783554 0.09991127 -0.032229442 0.029006498
00000000: cafa 26e8 c9cf e0ed cbf8 36c6 0631 effd
00000010: f0e8 ce05 fd15 ddd8 21d7 dc11 e21e 20ef
00000020: 15d7 dff2 00ce 302b 07e5 c623 1d12 35df
00000030: cfc0 efcd 29ea 03f4 fdd1 221b 02da f9e5
00000040: d310 30c6 0837 ec0a 0b3c 2f30 d6d4 fedf
00000050: 342e 1937 d7ea cc11 dd38 e6fc 31f5 d936
00000060: faf7 2f31 1411 10ff f5f2 baf1 dbf8 c530
00000070: fdba 19f5 e50f c4f8 19d3 e6c5 d0fa 122f
00000080: 0d20 03da f71a 17ef 08da e536 2e1e e7ed
00000090: b7c2 170e 11f5 1021 17cc 31dd 2435 d602
000000a0: e62a 14e0 33f7 15e2 17f9 d711 e2e8 e821
000000b0: dd00 2607 2bd4 eef4 36f3 18e1 3722 0dea
000000c0: ddf5 2ff6 3f30 2f24 f406 212d cdda d111
000000d0: f514 1cd5 f636 dbe6 20e1 d7d9 0ef3 37be
000000e0: 11b9 f030 1ad2 0f14 0cd4 b310 03d2 3cf7
000000f0: d5d2 1fec 183c de1a d207 ffe2 b01f f609

Nvidia_Model/quant_dense_2/MatMul;Nvidia_Model/quant_dense_2/LastValueQuant/FakeQuantWithMinMaxVars i1 [10, 50] scale=0.0040414054 zero_point=0
0.24248433 -0.25864995 0.18186325 -0.07274529 0.24652573 0.121242166 0.10507654 0.31927103
-0.032331243 -0.008082811 -0.18186325 -0.012124216 0.08486951 -0.040414054 -0.13336638 -0.117200755
0.12528357 -0.20611167 -0.13740778 -0.14549059 0.2182359 -0.040414054 0.27481556 -0.32331243
-0.092952326 0.20207027 -0.11315935 -0.17782184 -0.21419449 0.15357341 0.13740778 0.07274529
-0.19802886 0.14549059 0.18186325 0.08082811 -0.076786704 -0.05253827 -0.28693977 0.17782184
0.25864995 -0.20611167 -0.13740778 0.032331243 0.08891092 -0.10911795 0.18186325 -0.008082811
-0.024248432 0.10911795 -0.25864995 -0.10911795 -0.117200755 0.0 0.17378043 0.25056714
0.19802886 -0.012124216 -0.076786704 0.0 -0.08486951 0.16973902 0.18994606 -0.299064
-0.21419449 0.06870389 0.21419449 0.21015307 0.04445546 0.18590465 0.3031054 -0.18994606
-0.2222773 -0.12932497 -0.3031054 0.14144918 0.27481556 -0.2950226 0.20207027 -0.0040414054
0.056579676 -0.06466249 -0.16165622 -0.34756085 0.05253827 -0.28693977 -0.11315935 0.092952326
-0.17782184 0.16165622 0.012124216 -0.060621083 -0.33947805 -0.10103513 -0.04445546 -0.34351945
0.024248432 0.020207027 0.29098117 -0.3718093 -0.008082811 0.032331243 0.19398746 -0.16973902
0.008082811 0.2303601 -0.048496865 -0.048496865 0.10507654 -0.33543664 -0.14144918 0.14144918
-0.2222773 0.048496865 0.16165622 0.18186325 -0.21015307 -0.12932497 -0.10507654 -0.15761481
0.21419449 0.23844291 -0.0040414054 -0.024248432 0.24652573 -0.40414053 -0.2263187 -0.23844291
-0.25056714 -0.3677679 -0.41222334 0.020207027 -0.33947805 -0.51325846 -0.10103513 -0.28693977
0.18590465 0.10103513 -0.08891092 0.08082811 0.032331243 -0.24248433 0.24248433 0.12528357
0.21419449 0.10507654 -0.35160226 0.20611167 0.076786704 0.29098117 0.23440151 0.25864995
0.08486951 0.08891092 -0.2263187 -0.10103513 0.19802886 -0.2263187 -0.18994606 -0.11315935
-0.05253827 -0.09699373 0.25864995 -0.008082811 0.12528357 0.26673275 -0.18590465 0.07274529
-0.4607202 -0.18186325 -0.092952326 -0.17378043 -0.21015307 -0.10911795 0.048496865 0.31118822
0.14144918 0.0 -0.10911795 0.13336638 0.14144918 -0.117200755 -0.13336638 0.08891092
-0.11315935 -0.25056714 0.16569762 -0.06870389 -0.24248433 0.20611167 0.18590465 0.26673275
-0.27885696 0.26269135 0.15357341 -0.31522962 -0.121242166 0.29098117 0.04445546 -0.28289837
-0.09699373 0.09699373 -0.25460854 0.20611167 -0.11315935 -0.19398746 0.21015307 0.036372647
-0.20207027 0.23844291 -0.29098117 -0.28289837 -0.024248432 -0.31927103 0.036372647 0.19802886
0.14549059 0.14144918 -0.10911795 -0.17782184 -0.26269135 -0.040414054 -0.26673275 0.056579676
0.3031054 -0.13740778 0.23440151 -0.28693977 -0.17782184 0.016165622 0.18590465 -0.34756085
-0.12528357 -0.20207027 -0.18994606 -0.121242166 -0.18186325 -0.048496865 0.17378043 0.23844291
0.20611167 -0.13740778 0.056579676 0.016165622 -0.08082811 -0.32735384 -0.14549059 -0.3031054
-0.08891092 -0.17782184 0.012124216 -0.08891092 0.15357341 0.16569762 -0.16569762 0.3637265
00000000: 3cc0 2dee 3d1e 1a4f f8fe d3fd 15f6 dfe3
00000010: 1fcd dedc 36f6 44b0 e932 e4d4 cb26 2212
00000020: cf24 2d14 edf3 b92c 40cd de08 16e5 2dfe
00000030: fa1b c0e5 e300 2b3e 31fd ed00 eb2a 2fb6
00000040: cb11 3534 0b2e 4bd1 c9e0 b523 44b7 32ff
00000050: 0ef0 d8aa 0db9 e417 d428 03f1 ace7 f5ab
00000060: 0605 48a4 fe08 30d6 0239 f4f4 1aad dd23
00000070: c90c 282d cce0 e6d9 353b fffa 3d9c c8c5
00000080: c2a5 9a05 ac81 e7b9 2e19 ea14 08c4 3c1f
00000090: 351a a933 1348 3a40 1516 c8e7 31c8 d1e4
000000a0: f3e8 40fe 1f42 d212 8ed3 e9d5 cce5 0c4d
000000b0: 2300 e521 23e3 df16 e4c2 29ef c433 2e42
000000c0: bb41 26b2 e248 0bba e818 c133 e4d0 3409
000000d0: ce3b b8ba fab1 0931 2423 e5d4 bff6 be0e
000000e0: 4bde 3ab9 d404 2eaa e1ce d1e2 d3f4 2b3b
000000f0: 33de 0e04 ecaf dcb5 ead4 03ea 2629 d75a

Nvidia_Model/quant_dense_3/MatMul;Nvidia_Model/quant_dense_3/LastValueQuant/FakeQuantWithMinMaxVars i1 [1, 10] scale=0.0055122655 zero_point=0
-0.52366525 -0.70005774 -0.13229437 -0.29766235 -0.18741703 -0.0055122655 0.46854258 0.58430016
-0.016536796 -0.0055122655
00000000: a181 e8ca deff 556a fdff
